ppo_model.pth (torch, 161718 bytes, 74 tensors)

actor.actor.0.weight f4 [64, 3]
00000000: 2ab7 103f 5f00 85be 67a0 0a3f 8909 0dbf
00000010: dcee 063f 7a0a e5be 92bf 11bf cd0d 093f
00000020: 36df d43e 7308 65be d3c6 a6bd a6ea d13e
00000030: b85d 09bf 30ab 453d 789d 99be 2af4 c6bd
00000040: d0cc b63e 6858 cfbe bd05 cb3e e10b 343e
00000050: 03ea 0bbf b2e6 09be 1386 d8be 33b8 ebbe
00000060: a7ab fe3d 852d 3e3e c767 6ebe 013c d2be
00000070: 07e0 13be 9799 b83d 91c9 23be 1420 0fbf
00000080: 9c7c 943d d523 a43e 5165 f23e 5a74 6c3e
00000090: 49c1 ec3e 3680 d73e 4a18 fdbe 244a 8a3e
000000a0: 95c1 e9be e027 9d3d d735 aabd 2bb1 36be
000000b0: 2deb cd3e 7673 073f 217b b03e b820 13bf
000000c0: 72a3 e73e 1dff 42be a8d9 9f3e 43db 843e
000000d0: 87c2 da3d f0da eb3e 1542 1dbe 3bb7 d3be
000000e0: b29c 0dbf 1450 0bbe fa18 263e 916c f7be
000000f0: b148 01bd eccb edbe 7ae0 81bd 1a2c 7d3e
00000100: 3807 d3bb d5c0 8fbe 9b94 103d d9fe edbe
00000110: 8807 e1be f685 82be e3d5 73be e488 be3e
00000120: e85c f6be 9a96 663e 879e f3be d1f1 83be
00000130: 859a 01bf 4a62 da3e bcaa cd3e 8da9 ee3e
00000140: cf9a 0a3e d393 98be 5829 f3be b56a 8dbe
00000150: 694a 423d aa50 e7be c4c8 a53e da3a e73d
00000160: def1 fd3e e877 b1be 1334 dfbb 2e86 0fbf
00000170: d83b 923d ccae 4dbe 1977 fd3e 1068 b6be
00000180: 56cc 0dbf b71e e7bd fd36 493e b4bc c53e
00000190: fe22 30be 2220 c7bd c3f4 f83e d17c 0a3d
000001a0: 56f7 3a3e 4263 083f 4e6c 6a3e d6b7 b9bc
000001b0: a11b 523e ad47 c13d 1a3a e43e 52fd b53e
000001c0: 60bd 2fbe 70ca 993c 6849 a6be 09e9 103e
000001d0: 0e17 e5bc 0d66 edbe a97c 283e 3060 1f3d
000001e0: 19c1 023f d76a 883e dcf7 1fbd 651f f13d
000001f0: 2420 e1bd d0e0 fb3e 9aa2 a53e d2e3 8e3e
00000200: 35f1 a8be f23e 263e 3942 a63e 349b d7be
00000210: 01d7 cdbe d432 9c3d f664 b7be 2fe6 febe
00000220: 2218 08bf 4f10 b13e cdbe d83e f6a5 403e
00000230: fefa 0a3e 580d 953e 0911 86be 7010 e93e
00000240: 9720 f33e 10e8 913c b5fc c43d d389 253e
00000250: 2c33 3abe 83ab e13e b69e f43d c661 87be
00000260: 9d65 0dbf 4e90 fdbe 9523 073b efe7 dd3d
00000270: 94ab 083f 56d7 823e 2ebf b13e 51d9 1fba
00000280: 21bf 37be 276f b03e 599f 47bd 596b f33c
00000290: 9912 943e 6bce 743e fc4d 8d3e 6c5e 033f
000002a0: e9df e03e 5732 d8be 321c d23d 65fc 69bb
000002b0: 0d4a c03e 45a7 a0bd f97c 103b 66ad 093e
000002c0: 661f 923e a528 923e 4cf5 cbbe 5588 833d
000002d0: 206d bdbd 832b 333d 213e babe 3274 22be
000002e0: 67cf 693e 455c 843e 748c b8be 69e2 69be
000002f0: 9397 d6be 2550 133f 3a10 7f3e e878 2d3e
0.56529486 -0.25976846 0.54151005 -0.55092674 0.5270822 -0.44734555 -0.5693294 0.53536683
0.41576546 -0.22366504 -0.081433915 0.40999335 -0.5365863 0.04825896 -0.30002952 -0.09714539
0.35703135 -0.40497136 0.39652815 0.17582656 -0.5465395 -0.1346691 -0.4228979 -0.4603897
0.12435084 0.18572052 -0.23281775 -0.41061404 -0.14440928 0.0901367 -0.1599486 -0.5590832
0.0725033 0.32058588 0.47342923 0.2309126 0.46241215 0.42090005 -0.49432594 0.2700969
-0.45655504 0.07673621 -0.083110504 -0.17841022 0.40218487 0.52910554 0.3446894 -0.574718
0.45241886 -0.1904263 0.31220746 0.25948533 0.106816344 0.46065474 -0.1535724 -0.4135073
-0.55317223 -0.13604766 0.16220465 -0.48325017 -0.031563465 -0.46444643 -0.06341644 0.24723855
-0.0064400695 -0.28076807 0.03529797 -0.46483496 -0.43951058 -0.2549283 -0.2381206 0.37213814
-0.48117757 0.22518387 -0.47581884 -0.2577043 -0.50626403 0.42653114 0.40169322 0.46613732
0.13535617 -0.2980028 -0.4749248 -0.27620474 0.047434244 -0.4517873 0.32379735 0.11290522
0.49598593 -0.34661794 -0.0068116277 -0.56064117 0.071403205 -0.20086211 0.49504927 -0.35626268
-0.55389917 -0.11285155 0.19649883 0.38620532 -0.17200848 -0.09722926 0.48624238 0.03381044
0.18258414 0.53276455 0.22892877 -0.022670668 0.20518352 0.09437499 0.44575578 0.3554483
-0.17162085 0.018773288 -0.3247788 0.14151396 -0.027965095 -0.4636692 0.16453804 0.03891009
0.51075894 0.26644012 -0.039054736 0.11773566 -0.109924585 0.49194956 0.32350618 0.27908188
-0.32996526 0.16234949 0.324724 -0.42110598 -0.40203097 0.07626882 -0.35819215 -0.4978499
-0.53161824 0.34582755 0.4233307 0.18813309 0.13572308 0.29111743 -0.26184872 0.45520353
0.47485802 0.017810851 0.096185125 0.16165857 -0.18183583 0.44076166 0.11944334 -0.26441783
-0.55233175 -0.49524158 0.0020620574 0.108352534 0.5338681 0.25554913 0.3471617 -0.00060977513
-0.17944004 0.34459803 -0.04873595 0.029714273 0.2892044 0.23906867 0.2759856 0.5131595
0.4392083 -0.42225906 0.10259284 -0.0035703417 0.37556496 -0.07844404 0.0022047146 0.13445053
0.2853958 0.28546634 -0.39835584 0.06422488 -0.092493296 0.043742668 -0.36375526 -0.15864637
0.22833024 0.25851646 -0.36044657 -0.22840275 -0.41912517 0.57544166 0.24908534 0.16940653

actor.actor.0.bias f4 [64]
00000000: b2f6 cf3e 3600 013f d55f a8be da04 06be
00000010: 9b5e d2bc 9fda b03e a7c2 a6be 30ec e93d
00000020: 5e76 c53e 7645 123c f27e 37be 2ccc ddbe
00000030: 8e2e b53d ec2b 67bd e971 5d3d 1ebb dfbe
00000040: c60e c93e d5ac 183e a0c4 11bf c18a 91be
00000050: 83e8 113e 62df c2be 55c5 b33d a114 07be
00000060: d6df 013f 247a bc3e f9e2 cdbe 1fe0 55bd
00000070: 4329 e9bd ef03 f6be 15f6 0e3f d4fe d0be
00000080: a3ce f5be 3fed cabd 3de3 80bd 7126 3abe
00000090: d4e7 9c3d 9832 1abe a3fb ca3e b488 16be
000000a0: 4c9c 0d3e 7f0b f63e 9ab2 0dbf 8d68 1b3e
000000b0: 49e5 9dbe 6769 41bd 94bb 1dbe d0aa dcbe
000000c0: 5d86 be3e 0c84 dc3e 070c 91be 553b c8be
000000d0: cb2c ee3e c566 543e 0b51 43bd 2ae0 693e
000000e0: c51b 7cbe 175b 0cbf 4127 cfbe 5fcc 0bbe
000000f0: c197 493d 0da6 b2be 5545 0abe 2cf4 03bd
0.406179 0.50390947 -0.32885614 -0.13087788 -0.025679877 0.34541795 -0.32570383 0.11422002
0.3856687 0.008927694 -0.1791952 -0.43319833 0.0884677 -0.05643837 0.05406371 -0.43697447
0.39269084 0.1490968 -0.5694065 -0.28426173 0.14248852 -0.38061053 0.087778725 -0.13191463
0.5073217 0.36811936 -0.4021223 -0.05221569 -0.11384823 -0.48049876 0.5584424 -0.40819418
-0.48009214 -0.09908532 -0.06293342 -0.18178727 0.07661405 -0.15058362 0.3964511 -0.14700586
0.13829154 0.48055646 -0.5535065 0.15176602 -0.30838993 -0.04721966 -0.15403587 -0.4309907
0.37211886 0.43069494 -0.2832949 -0.39107767 0.4651855 0.20742328 -0.04768471 0.22839418
-0.24619968 -0.5482649 -0.40459636 -0.1365218 0.04921699 -0.34892312 -0.1350301 -0.032215282

actor.actor.1.weight f4 [64]
00000000: e9fa 7f3f a800 803f b105 803f 2411 803f
00000010: fe01 803f 0bfb 7f3f e115 803f 5b01 803f
00000020: 3ef6 7f3f e303 803f 7304 803f 3f0e 803f
00000030: 0a13 803f a9fd 7f3f 7f14 803f 5e10 803f
00000040: 3ffb 7f3f 93fe 7f3f 0000 803f 0100 803f
00000050: 2902 803f 6d14 803f 70e5 7f3f 620a 803f
00000060: 2a08 803f 0ffb 7f3f bae7 7f3f 0000 803f
00000070: a5de 7f3f 2e1a 803f 7de0 7f3f b208 803f
00000080: 04f2 7f3f ec1b 803f 9fec 7f3f 05cb 7f3f
00000090: 0115 803f efd1 7f3f 23fe 7f3f 8707 803f
000000a0: babc 7f3f 1e15 803f a103 803f affb 7f3f
000000b0: 5d09 803f 46ec 7f3f b4dc 7f3f be16 803f
000000c0: 83df 7f3f d8d0 7f3f bce8 7f3f 5f05 803f
000000d0: e912 803f 88cd 7f3f 8d10 803f d508 803f
000000e0: baf0 7f3f d104 803f ce08 803f 4d16 803f
000000f0: 6bf9 7f3f 2504 803f 0000 803f 9b16 803f
0.99992234 1.00002 1.0001737 1.0005231 1.0000608 0.99992436 1.0006677 1.0000414
0.9998511 1.0001186 1.0001358 1.0004348 1.000581 0.9999643 1.0006255 1.0004995
0.99992746 0.99997824 1.0 1.0000001 1.0000659 1.0006233 0.9995947 1.0003169
1.0002491 0.9999246 0.9996296 1.0 0.99949104 1.000799 0.99951917 1.0002654
0.9997866 1.0008521 0.9997043 0.9991916 1.000641 0.9992971 0.99997157 1.0002297
0.9989735 1.0006444 1.0001107 0.99993414 1.0002857 0.999699 0.9994614 1.000694
0.99950427 0.99928045 0.999645 1.0001639 1.0005771 0.9992299 1.0005051 1.0002695
0.99976695 1.000147 1.0002687 1.0006806 0.99989957 1.0001265 1.0 1.0006899

actor.actor.1.bias f4 [64]
00000000: 81a2 26b9 eb93 4f37 ecb0 d739 fdc8 2f3a
00000010: d278 7bb9 1b13 a6b9 d42a 2e3a 7d23 2d38
00000020: 301c f7b8 95d2 6338 5721 78b8 d4aa 023a
00000030: c2a6 f639 f0f3 51b9 5bd4 203a 4ef6 eb39
00000040: eb69 26b9 29e2 edb8 0000 0000 4b8a d4b8
00000050: 79b1 c7b8 5be5 663a a580 f3b9 0f14 5439
00000060: 6deb 8c39 0b0e 7eb6 6618 dfb9 0000 0000
00000070: a100 2aba fb2c 4a3a ca87 44ba 7317 ed39
00000080: 001a 95b9 6707 643a 9cd5 acb9 e646 3fba
00000090: 4877 393a 4cad 4dba 264d 44b9 44ea 1939
000000a0: 971f 84ba 1596 2b3a 4a2c 4839 c2e5 d3b7
000000b0: 6605 7f39 d22c fdb9 3523 03ba 8a2f 4b3a
000000c0: c417 1dba 3cf8 56ba 5336 edb9 45ed 3838
000000d0: e8b5 133a 0a36 5fba 3d48 4a3a 88b3 7239
000000e0: c5cf 3bb9 8722 f539 3975 8638 ad24 4a3a
000000f0: fe8f 2fb8 aba2 69b9 0000 0000 95ee 303a
-0.00015891531 1.2372601e-05 0.00041139813 0.000670567 -0.00023982234 -0.00031676222 0.0006643955 4.1279465e-05
-0.00011783128 5.4317137e-05 -5.9158858e-05 0.0004984562 0.0004704502 -0.00020022667 0.0006135159 0.00045006204
-0.00015870451 -0.00011343166 0.0 -0.00010134707 -9.522116e-05 0.00088079803 -0.0004644442 0.00020225368
0.00026878287 -3.7857124e-06 -0.00042552053 0.0 -0.0006485079 0.0007712391 -0.0007497041 0.00045221634
-0.00028438866 0.0008698613 -0.00032965548 -0.00072966365 0.0007074964 -0.00078459526 -0.00018720757 0.00014678488
-0.0010080215 0.0006545496 0.00019089985 -2.526015e-05 0.00024320706 -0.00048289314 -0.00050024997 0.00077509193
-0.0005992616 -0.0008200442 -0.00045244637 4.4089993e-05 0.0005634711 -0.00085148274 0.0007716453 0.00023145799
-0.0001791111 0.00046755766 6.411452e-05 0.00077111536 -4.1857355e-05 -0.0002228121 0.0 0.00067494187

actor.actor.3.weight f4 [64, 64]
00000000: 45cc eebd 4815 d23c 2687 893c 379e 38bd
00000010: 5eb5 d1bd 0ac4 723d c362 86bd ed7c 173c
00000020: 2a95 c93d 2e69 0c3c 5823 013d 545f d5bd
00000030: 4c48 d93c 86d2 ad3d e0a9 9dbc fa3e 0b3c
00000040: 6efc e8bd 725b c6bd c421 d53d e64b a2bd
00000050: c954 893d 3442 27bd f2c3 91bd 3093 79bc
00000060: f0ea 44bb 995a 8f3d 2d2e 113a 6e88 b93d
00000070: b6b8 c3bd 2064 f23d f8f7 bb3d d8e2 23bc
00000080: de76 f53d 3668 e33d 28cc 9abc 8c14 66bd
00000090: 4460 cf3d ca17 8fbd 99bd e73c 2d23 b63d
000000a0: fcb6 0d3d 9b4c 0cbc 2103 36bd c249 e0bc
000000b0: 439b 273d 30c7 b23c 44d8 223d 2087 a73b
000000c0: 4373 c5bd 1a24 ee3d f028 6c3d d05e 13bc
000000d0: d37e 69bc dd96 9d3d 861b a2bd f5a3 c4bc
000000e0: 6cdb 593d 9963 88bd fed9 f73d ce1d 89bd
000000f0: a2b0 f43d e81c f3bc 8800 383d eb9b e9bd
00000100: d2f6 7c3d 5f9a 97bd a0c5 16bd dce0 92bd
00000110: 3ad0 db3d 8eec e6bd 69af 8e3d c82e c4bd
00000120: 2028 41bd 18f5 f1bd 12b4 a5bd 96be 053d
00000130: eccb 133c 6949 cb3b 035c 903d d0ba e33d
00000140: f70b f0bc 4ebb b83d 708b c63c 1ad7 42bd
00000150: 9ec4 85bc f325 8e3d 2765 d43d 1e71 d3bd
00000160: 3e1f 5a3d aded 213d d8a5 5abd 8070 ee3a
00000170: 51d7 28bd d4c8 f4bc c055 9ebd 3205 6fbc
00000180: 866e 2d3c 7ff2 8ebd 6c2e c2bd c67f ccbd
00000190: 79cd 443d 79a6 eebd c7e3 32bd 6e84 6fbd
000001a0: 9015 f83d ff5c f9bc 7851 d03d 610c d83d
000001b0: 6473 debd 07e7 863d 01f4 99bd 5acf 143c
000001c0: 8212 efbd 8ef2 49bd dd74 45ba d7b3 2b3d
000001d0: 1c57 be3d eaea f53d 57ff 643d 6fff a4bc
000001e0: 061b 46bd 6bbc c8bd 942d d73d ac7c a83d
000001f0: 0d82 373b 20de 453d f611 eebd 8f4c 923d
00000200: 38cf c5bd 74a1 2abd 383e 3d3d ee2d 9a3d
00000210: 182c 29bd b0e1 bf3c b052 dd3d 80a5 92bd
00000220: 80f6 e83c ec42 bc3d 78a8 b73c 9ccd 673d
00000230: 340b a33d 4468 113d 8095 f93d 12a3 d8bd
00000240: 9acb fa3d 742c 95bd 14a7 003d e807 b03c
00000250: ba17 cf3d acd9 dabd 467a d8bd 8033 de3a
00000260: 90fc 56bd 008b 99ba b8b0 b8bd 84d3 96bd
00000270: ec91 13bd 5cfe 02bd 0c7e b73d d4d0 62bd
00000280: 40ac ddbc bcac 6ebd 0216 f43d 4011 76bb
00000290: f44f 453d 0c8d 723d 58a7 643d 48f4 7c3d
000002a0: 10a7 5cbc ec58 b1bd d885 943d eefd f9bd
000002b0: 4c98 bf3d b6b5 a2bd e80e d23c 3c07 3fbd
000002c0: a4ef 9abd 68a7 a13d 54a4 483d 8066 d7bd
000002d0: 72ed c8bd 8685 cfbd 4003 d4bb dcd0 83bd
000002e0: f057 0cbd 7892 ecbc 84f2 7f3d a8b0 41bd
000002f0: 8e6b b93d 60c2 d3bc 6c69 c33d c261 e2bd
00000300: 56eb ea3d 3dac 6cbd ab1a 733c 5030 cb3d
00000310: 6e0a b73d 5e32 c5bd d947 8c3c 44a7 99bd
00000320: e382 9cbc 2217 883d 6541 c3bc f890 943d
00000330: e5b8 26bd f332 be3d 5ed2 733c ba9c fe3c
00000340: 2e12 483d 81c5 90bd 1270 ea3d 6a87 f7bd
00000350: 492e 92bc c093 ae3d 9bb8 b1bc 3ea2 abbd
00000360: 1bb2 ff3d 28bc b83d 137d 94bd 3c2c a23d
00000370: ed24 04bd 581f 22bd c437 463c 8065 983c
00000380: d017 483d a1f1 1e3c 5fbe e5bb aee9 96bd
00000390: ac54 6e3d e9f1 9d3c 2f18 cfbd 9def 9f3d
000003a0: deca f73d c794 9c3d ff07 ebbc f82b 45bd
000003b0: a89c 67bd 45c3 dd3d b597 a3bd a724 02bd
000003c0: e024 c2bd e365 aebd e506 aebd d5e8 40bc
000003d0: 63fa f2bd 78c5 fcbd af88 c1bd 3888 ad3d
000003e0: 8f20 283d 5b6f d23d 6803 cb3c feaa 053d
000003f0: f077 8fbd d20f 60bd 7e5a 913d 1c32 8bbd
-0.11660055 0.025644913 0.016788077 -0.04507276 -0.10239671 0.05926899 -0.06561806 0.009246093
0.09842904 0.008569999 0.031527847 -0.10418573 0.026523732 0.0848742 -0.019246042 0.0084989015
-0.11376272 -0.096854106 0.10406831 -0.07924633 0.067056246 -0.04083462 -0.07117452 -0.015232846
-0.003004726 0.06999702 0.0005538192 0.09059225 -0.09556715 0.118355036 0.09178156 -0.010002814
0.11985563 0.11103861 -0.018896177 -0.05617194 0.10125783 -0.06986959 0.02828865 0.08893428
0.034598336 -0.008563186 -0.044436578 -0.02737892 0.040919553 0.021823496 0.03975703 0.0051125437
-0.09641125 0.116279796 0.05765623 -0.008994773 -0.014251429 0.076947905 -0.07915406 -0.024003962
0.053187773 -0.06659622 0.121021256 -0.06695138 0.119477525 -0.02967687 0.04492238 -0.11406692
0.061758824 -0.07402491 -0.036809564 -0.07171795 0.107330754 -0.11275588 0.069670506 -0.09579235
-0.047157407 -0.11814326 -0.08090986 0.03265246 0.009020787 0.0062038195 0.070488 0.11119616
-0.02930258 0.090201005 0.02423641 -0.047568418 -0.016329106 0.06940832 0.10370856 -0.1032431
0.05325245 0.039533306 -0.053380817 0.0018191487 -0.041220967 -0.029880919 -0.07731199 -0.014588641
0.010585433 -0.06979846 -0.094815105 -0.09985308 0.048047516 -0.11652846 -0.043674257 -0.058475904
0.12113488 -0.030439852 0.10171789 0.10549236 -0.10861853 0.06587034 -0.07517243 0.00908264
-0.11673452 -0.049303584 -0.00075323676 0.041919556 0.092939585 0.12007697 0.055907574 -0.020141331
-0.048365615 -0.09801563 0.1050674 0.08226904 0.00280011 0.048307538 -0.116245195 0.07143509
-0.096586645 -0.04165788 0.046201915 0.07528292 -0.041301817 0.023423046 0.10806787 -0.07160473
0.028437853 0.09192452 0.0224192 0.05659257 0.07961121 0.035499826 0.12186718 -0.10577978
0.12245865 -0.072838694 0.031409338 0.021488145 0.10111947 -0.10686049 -0.10570197 0.0016952604
-0.052486956 -0.0011714399 -0.090180814 -0.07364562 -0.036027834 -0.031980857 0.089595884 -0.055374935
-0.027059674 -0.0582702 0.1191826 -0.0037546903 0.048171952 0.059216544 0.055823654 0.061756402
-0.013467565 -0.086595386 0.07252091 -0.12206636 0.0935522 -0.07944815 0.025641873 -0.04663776
-0.07565239 0.07893258 0.04898484 -0.10517597 -0.09810914 -0.101328894 -0.006470114 -0.06436321
-0.03426355 -0.028878435 0.06248714 -0.047287613 0.090537176 -0.025849521 0.09541592 -0.11053802
0.11470668 -0.057781447 0.014837901 0.09921324 0.08937536 -0.096287474 0.017124103 -0.075026065
-0.01910538 0.06645037 -0.023834893 0.07254213 -0.040703673 0.092870615 0.014881698 0.031080592
0.048845463 -0.07068921 0.11447157 -0.12086375 -0.017844336 0.08524275 -0.021694472 -0.083805546
0.12485143 0.09020263 -0.072504185 0.07918593 -0.032261778 -0.039580673 0.0120982565 0.018603086
0.048850834 0.0097011635 -0.0070112194 -0.073687896 0.05818622 0.01928039 -0.101120345 0.078093745
0.12099241 0.076455645 -0.028690336 -0.048137635 -0.056545883 0.1082826 -0.0798792 -0.031773236
-0.094796896 -0.08515527 -0.08497409 -0.0117742615 -0.11864164 -0.12342352 -0.094498985 0.08473247
0.041046675 0.102751456 0.024781898 0.032633774 -0.07005298 -0.054702587 0.07097338 -0.06796667

actor.actor.3.bias f4 [64]
00000000: ba70 b63d 9ebc abbd b639 e5bd c4da d53d
00000010: 8706 493d 3869 fdbd 0097 38bc f4c7 bdbd
00000020: 468c 35bd c214 363d 41c7 ee3d d9fe 8cbd
00000030: 4531 cfbd 4d90 d4bd eda7 c3bd 90dc 90bd
00000040: 74fd cfbd 427b 9fbd f837 9fbd 4bec 973d
00000050: 47fa e93d 04e9 60bd 9ffd 8cbd cc0a 463c
00000060: 1c67 b93d e65b 343c 3f75 903d 3ab1 52bc
00000070: cf2f 933d 205b c8bd 4ce0 efbd aa27 003e
00000080: 7656 e63d 20dc 30bc 1cb8 e23d f88f 873d
00000090: 2dab b4bd 957b 473d ff3d dc3d 5c18 233d
000000a0: 083e babd 196f fe3b 7c35 c2bd cc80 053d
000000b0: a766 bd3d 9e41 bb3c e9ac ad3b 905f e53d
000000c0: 7da3 7abc 44dd c63d 0819 3d3d 6dbf 13bd
000000d0: d449 6bbd 0de4 9dbd 2445 b0bd 1f76 933d
000000e0: 26f5 b2bd 7018 b3bd 3be0 783d 09ab 8fbc
000000f0: 05a3 ee3d 07b9 afbb bda4 6e3d aa38 e6bd
0.0890822 -0.08385585 -0.11192648 0.10442117 0.04907849 -0.123735845 -0.01126647 -0.09266654
-0.04432323 0.04445339 0.116590984 -0.06884546 -0.10116819 -0.10379086 -0.09553514 -0.07073319
-0.10155764 -0.077871814 -0.07774347 0.07418116 0.1142469 -0.05490972 -0.06884312 0.012087535
0.0905287 0.011008238 0.07053613 -0.012859637 0.07186853 -0.09783006 -0.11712703 0.1251513
0.1124696 -0.010794669 0.11070272 0.06619257 -0.08821712 0.04870184 0.10754012 0.039818153
-0.09093863 0.0077647087 -0.094828576 0.032593533 0.09248095 0.022858437 0.0053001535 0.11199868
-0.015297768 0.09710172 0.04616645 -0.03607123 -0.057443455 -0.07709513 -0.086069375 0.07200264
-0.087381646 -0.087448955 0.060760718 -0.01753761 0.11652187 -0.005362633 0.058262575 -0.112412766

actor.actor.5.weight f4 [64, 64]
00000000: 9ecf af3d 9fc0 dcbd 4c0b 5e3d 5891 513d
00000010: a7f1 413d 3a72 95bd dc7a 003e 7a13 9a3d
00000020: f604 07bd 4108 e2bd e7ca b1bd faaa b6bd
00000030: 5794 a63c 9010 52bd 3158 af3c ed4d a0bd
00000040: 1982 ebbd 009e fe3a ea67 b83d ad4f 933c
00000050: 4ad5 9dbd 7482 7fbd 0c31 90bd 5b46 a83d
00000060: f3ab dbbd b5ec ec3d 4b67 acbd 0a60 0abd
00000070: deea 14bc 2de9 d1bc 143c 793d c3be fc3d
00000080: c675 a43d 3286 9abd 5d0a 87bd c56b 38bd
00000090: 220e de3d 2006 183c 2543 b6bd b1aa f0bd
000000a0: 2cbb c4bd 36d9 e0bd abb7 523c d0bb 24bc
000000b0: d034 51bd 2de2 4e3d da3f 003e 1741 e13d
000000c0: 4e1b 503b 8515 d2bd 5205 d0bc 8e43 9bbb
000000d0: 7cfd e9bd b024 373d 96dc 9ebd e245 38bc
000000e0: 5605 d23d a6c5 eb3d b941 0d3a a17e cd3d
000000f0: 161d eb3d b2dd b43b 9361 d43d 14c5 253d
00000100: 4530 48bd beb3 5fbd c077 bc3b c745 96bd
00000110: 299d 60bc eda0 9abd d8d6 3b3d 7f2e 9d3d
00000120: 03a9 023d 871c fbbc 0db3 d13d 0eb1 c6bd
00000130: 56ad b9bd 78ba 513d 7b61 81bd c09a dd3c
00000140: 5c85 9d3d 8470 3f3d aa06 af3d d633 44bd
00000150: 31da fc3c 68b4 f53d a5bb 953d 7873 9f3d
00000160: cf85 953b e976 353d 884f 663d 66d3 52bd
00000170: 3d02 f9bd e0aa 9fbd 3cf8 8dbd d332 24bd
00000180: 7f5e 803d 0265 f0bd 7cd2 dc3c b223 f5bb
00000190: 778d a0bd c993 e6bd f848 d8bd 97fc 93bd
000001a0: 66be be3d 049a cd3a d552 f3bd 407a d83b
000001b0: c61c 95bd a80a b43d ade0 a53d 2221 0e3d
000001c0: 9a9a febd 5356 1a3d d39a 6b3d c6a3 87bd
000001d0: 5c40 3d3d b21c f23c 155d b13d 5c20 bfbd
000001e0: ca57 ee3d 00be b13d 0b53 a4bd 4901 043d
000001f0: 2806 f63d 3a56 463d 9d2a 8abd e04e e73d
00000200: e419 853d b9f4 2f3c e44f 9e3d 51d6 643d
00000210: f358 b3bd 063e a13d b06f 083d c1f0 ca3c
00000220: 402f 9dbb d677 e93d 05cf bcbd e093 3f3c
00000230: 924f 34bc 8606 4b3d 5016 043d 6bd9 173d
00000240: c996 cd3d acc1 ba3d 88d4 f5bd 5c54 c5bc
00000250: 5daf 4bbd aa97 c33d 4378 9d3d b190 cabd
00000260: c75e 813c 6496 89bd 5367 b63d 059b 9b3d
00000270: 11bc 86ba b854 123d c447 76bd 9195 eb3d
00000280: 9b69 b5bc d27e febd bfb1 e9bd 74aa 903d
00000290: 2dc3 e2bd a65a e63c 1b93 23bd c46c c2bd
000002a0: be18 ac3d c002 e43d 4285 d13d 40a9 e5bd
000002b0: bfa1 adbd bd68 4abd 5088 c83b b4c0 75bd
000002c0: 92d5 803d 9593 9c3c 01e5 86bd 1910 59bd
000002d0: 9c28 153d 9d2e e1bb 914c 5cbd bc56 c93d
000002e0: e0ec 67bd 0242 b73d 4003 bebb 5303 cbbc
000002f0: 5033 f03c a0d4 6dbc 0a19 9bbb 3036 dcbd
00000300: bad0 b0bd 7480 bc3d 02af e4bd 0f50 b6bd
00000310: 3700 403d 1aac ab3a ee8e 013c 5ac3 a4bd
00000320: e5d8 b83d c4e5 5cbd a5c4 ae3d 4835 35bd
00000330: 89fd ca3d 3503 36bd 3a66 bebd 26c9 2a3c
00000340: 09a8 84bd 989d f5bd fc66 2fbd 9a05 c23d
00000350: 671d 853d b8df b6bc 4468 fabd e65c 16bd
00000360: 43d3 adbd d855 20bd d390 cdbd 3b5a 4fbc
00000370: 1a4f 983d ec80 35bd 402a 5ebc 90ce 303d
00000380: cd1e 2cbc 549c c33d 7a47 6ebc e5e4 4d3c
00000390: 0c84 d33d 8829 c1bb 72c5 1fbd 39d9 ad3d
000003a0: 98cc d2bd e20e b73d 7f5c 44bc d856 89bd
000003b0: 9c49 ef3d 4b4b 22bd a802 623d b150 f43c
000003c0: f31d f83d 76e3 eabc f406 853d 8d2a ae3c
000003d0: 68f0 07bd cd5a 94bd 7947 26bd 40d4 123d
000003e0: 38f1 95bc dca3 9a3d 7334 23bd 012b 1a3d
000003f0: 5a0c a93c 5a0a 533d 2ba4 ee3b da0c b83d
0.08584522 -0.10778927 0.054209992 0.051164 0.0473496 -0.072971776 0.12546867 0.07523246
-0.032963715 -0.110367306 -0.08681279 -0.0891933 0.020334406 -0.051285326 0.021404358 -0.07827363
-0.114994235 0.001942575 0.09004195 0.017982328 -0.07706697 -0.06238027 -0.07040605 0.08216544
-0.10726156 0.11568586 -0.08418139 -0.033782996 -0.0090892 -0.025623882 0.06084831 0.123410724
0.08030276 -0.07545127 -0.065937735 -0.045024652 0.10842539 0.009278804 -0.088995256 -0.11751307
-0.09606013 -0.1097893 0.012861173 -0.010054544 -0.051075757 0.050508667 0.12524357 0.10998743
0.0031754556 -0.10258011 -0.025393162 -0.0047382778 -0.114253014 0.044712722 -0.07756917 -0.01124713
0.10254924 0.11512308 0.00053885166 0.10033918 0.11480157 0.005519592 0.10370173 0.04047115
-0.04887416 -0.054614775 0.00575158 -0.07337528 -0.013709345 -0.075502254 0.045859188 0.07674884
0.031899463 -0.030653251 0.10239229 -0.09701739 -0.09066264 0.05120322 -0.06317421 0.02705133
0.07691452 0.046738163 0.08546193 -0.047900997 0.03086576 0.119973004 0.07311181 0.07785696
0.0045630704 0.044302855 0.05622819 -0.051471137 -0.1215863 -0.07796264 -0.069321126 -0.040087532
0.06268024 -0.11738016 0.026955836 -0.007481062 -0.07839482 -0.112586565 -0.10560793 -0.07225912
0.09313659 0.0015686159 -0.11881033 0.00660637 -0.07280879 0.08791095 0.08099494 0.034699567
-0.12431832 0.03767998 0.0575207 -0.06623034 0.046203956 0.029554699 0.08660332 -0.09332344
0.11637838 0.08678818 -0.08023652 0.032227788 0.12012893 0.048422076 -0.06746409 0.11294341
0.06499079 0.010739499 0.07730082 0.05586845 -0.087572 0.07873158 0.03330964 0.024773004
-0.0047968924 0.1139981 -0.09219173 0.011692971 -0.011005299 0.049566768 0.03224784 0.03707258
0.100385256 0.09118971 -0.12003428 -0.024088077 -0.049727786 0.09550412 0.07688954 -0.09890879
0.015792264 -0.06718138 0.08906426 0.07597927 -0.0010279437 0.035725325 -0.060127035 0.11503137
-0.022145083 -0.12426533 -0.114108555 0.07063761 -0.11072383 0.028119396 -0.039935213 -0.09493402
0.08403157 0.11133337 0.10230495 -0.112139225 -0.08478116 -0.049416292 0.0061197653 -0.05999823
0.06290735 0.019113341 -0.06586648 -0.052993868 0.03641568 -0.006872012 -0.053783957 0.098309964
-0.056622386 0.08948137 -0.0057987273 -0.024781859 0.029321343 -0.014516026 -0.0047332095 -0.10752523
-0.086335614 0.09204188 -0.111661926 -0.08901989 0.046875205 0.0013097555 0.007907612 -0.08045073
0.09025744 -0.05393006 0.08533601 -0.044240266 0.09911639 -0.044436652 -0.09296842 0.010423934
-0.06477363 -0.11992949 -0.042822823 0.09473725 0.06499749 -0.022323474 -0.12226918 -0.03670969
-0.084875606 -0.039144367 -0.10037389 -0.01265579 0.074369624 -0.044312403 -0.013559878 0.043165743
-0.01050539 0.095513016 -0.0145434085 0.01256678 0.1032792 -0.0058948435 -0.039006658 0.084886976
-0.102929294 0.089383855 -0.011984943 -0.06706017 0.11683962 -0.039622586 0.055178314 0.029823633
0.12115087 -0.028672915 0.06495467 0.021260524 -0.033188254 -0.072438814 -0.040595505 0.03584695
-0.018303499 0.07550785 -0.03984494 0.037638668 0.020635772 0.051523544 0.007282754 0.08986826

actor.actor.5.bias f4 [64]
00000000: 7e2f a63d 66c6 183d 8bcd a9bd 01d3 f3bc
00000010: 6ec1 e6bd 3de0 c33d 506c 9cbb db0c 613c
00000020: 7454 a93d 90d3 d2bd e0d7 68bc 0cdf 903d
00000030: bb8f d1bc 161e 52bd 80da 2bbc 383f 8dbd
00000040: a52d ea3d 1e13 d83c ace3 9c3d f852 793d
00000050: 125f 1bbd 37dc 203d 5bf8 e1bd edbd dfbd
00000060: f3a3 623d e005 00be f04c bfbb eef8 fbbd
00000070: 6f61 0d3d bd59 a53d 460e e93d 36f8 9cbd
00000080: ba3c 60bd bc66 da3c 0d98 b2bd 566c 2fbd
00000090: 1ed9 8ebd dac6 d5bd 3ded 663d ea82 47bb
000000a0: 1f26 363c 54f8 753d 3474 663d 9de7 873d
000000b0: bc1a 373c 87db f33d 6393 8c3d 6278 dbbc
000000c0: 9a16 cfbd 6c13 3a3d 2ac4 60bc 9958 c43d
000000d0: b66b 1a3d 4576 d83d bda8 c73d 6698 09bd
000000e0: 7016 06bc f14a 86bc 617a ea3d 6097 30bd
000000f0: 4e51 92bd f078 9abc 36ee 84bd d955 b2bd
0.08114527 0.037298582 -0.08291157 -0.0297637 -0.112673625 0.095642544 -0.004773654 0.013735975
0.08268061 -0.102942586 -0.014211625 0.07073793 -0.025581231 -0.051298223 -0.010489106 -0.06896824
0.11434487 0.026376303 0.076606125 0.06087014 -0.037932463 0.039272513 -0.11033698 -0.10924897
0.055332135 -0.12502241 -0.005838029 -0.12303339 0.034516748 0.08073757 0.113796756 -0.0766453
-0.054745413 0.026660316 -0.08720408 -0.042827927 -0.069750056 -0.104383186 0.05637859 -0.003044302
0.011117487 0.060051277 0.056263164 0.066359736 0.011175808 0.11907106 0.06864049 -0.026790801
-0.10111733 0.04542868 -0.013718644 0.09587211 0.037700377 0.10569433 0.09748981 -0.033592604
-0.00818406 -0.016393157 0.11449123 -0.043113112 -0.07144414 -0.018856496 -0.06490748 -0.087077804

actor.actor.7.weight f4 [7, 64]
00000000: ca18 bbbd c444 26bd a9d3 a53c f4c6 f53d
00000010: 467a 18ba 7a37 1cbd a97e 8f3d 87c2 cb3d
00000020: 437e 18bc 7e06 debd 08db a03d 4680 d33d
00000030: b3e3 203d ab27 bbbd 4023 6a3d 5010 2a3c
00000040: 5e62 a13d 8f2c b6bd 3de3 f83d a7dd e03d
00000050: 188d 87bd 9311 f9bd 6d0d 543d 0b20 a83b
00000060: 1f14 af3d fe00 dc3d 778d b3bd 3013 73bc
00000070: 2a43 8dbc 54aa db3d 9b1b 5c3d 787f f93d
00000080: ba34 ee3d 8367 213d c76d 743b 2a3f 98bd
00000090: 48bf 3a3d 1c2f 9b3d 3351 8c3d 96f8 1abd
000000a0: ecda 7cbd f558 a13d 72d5 b53c 2284 b5bd
000000b0: c149 e4bd 42c7 dcbd 4fac c33d 4f43 f73c
000000c0: e20a 35bc b270 fe3d 2779 64bc c09c c63d
000000d0: 95ea 5e3c 4542 bdbd 4c7d 053d 7542 dfbd
000000e0: 78ee 153d 36fa 623d b868 f1bd f635 f73d
000000f0: 58cc a5bc de8c ce3d a814 54bd 1a83 ca3d
00000100: 173f 0a3d 52d5 3c3d 41f3 d03d ccf2 843d
00000110: aa84 80bd 8a81 5f3d e03b aebd cd3f 7f3d
00000120: 8b8d 36bd b0b4 1d3c 7ffc d43c bd4e a83d
00000130: 7246 1dbd 9bb8 8d3c fad7 87bd 249d db3d
00000140: cc1c c5bc e86c 463c c864 6fbd 18fb cdbd
00000150: 7b49 43bd 2d3e c3bd 4c73 67bd a28a f8bd
00000160: dd9c 053d 1262 b33c 04a3 d93c 720f a9bd
00000170: 20e9 acbd dad0 f53d 2098 f5bd f06e a83d
00000180: 73d1 bcbd d829 ee3d ca6f e03d 4dd7 063d
00000190: 0a1c 853d 4854 acbc 2929 9fbd c019 903d
000001a0: c49a 393d 105d 293c 23cf ba3a 3d84 8fbd
000001b0: a59e c5ba b689 8b3d f781 c5bd c3aa 9abd
000001c0: 5a1f 193d ee83 f73c d4d0 ed3b 6dd2 e43d
000001d0: b878 923d 9ce0 d6bd 9dd1 af3c 97d6 2a3c
000001e0: 4c1a 20bd adb5 82bc b33c fe3d b3fb b93d
000001f0: 563c d6bd e000 9c3b 949c 19bd e70e c53d
00000200: 6295 923d 7874 b93b b105 c9bd 6bd9 993d
00000210: df25 11bd d623 603d 516c ef3d 82cc eebd
00000220: 0f41 b9bd 5c80 d43d 4516 8b3d d700 26bd
00000230: 6185 5ebd f3eb e93c c01d 7fbd 7eca abbd
00000240: 9ca3 013d d9f2 ea3d 517c fa3d 0081 b7bd
00000250: c477 633d 865a f93d 8ed2 65bd 87d3 f03c
00000260: 4a5a 27bd c28d a1bd e0e2 973d 02e3 d93d
00000270: cfa8 333b 3624 443d 04c6 813d 55c9 603d
00000280: 82c4 8e3d e578 74bd cdcd c73d fd23 bf3d
00000290: 58f0 c03d 5062 e8bc 265e ee3d 65de ae3d
000002a0: 14e7 fe3d 6288 863d 00e9 09bd 0434 22bd
000002b0: 98d3 d13b 24cd 913d d25b b7bd fdb8 ac3c
000002c0: d656 ec3c e864 a73d fa98 f7bd 1899 603d
000002d0: 6307 74bd 6a6f a73d ae27 993d 416f c73d
000002e0: c0ad ec3c 8e52 48bd e4d8 b43b 3c41 bc3c
000002f0: b05e d2bc 002a c93d 3891 423d 5032 ca3d
00000300: 7d3e 773c 33b0 dabd 37e4 8c3d 7254 c63c
00000310: 2430 c93b 5140 53bd ff07 27bd 0255 3f3d
00000320: 2403 f5bd 489c 733d f3d2 153d a9de 863d
00000330: ec91 f53d c833 983c ac7a 61bd 1670 f33d
00000340: ecd0 9cbd b582 a7bd d28c f93b ac12 813d
00000350: 22d3 de3d 84a5 6bbc b9e2 a9bd 41b0 80bd
00000360: dff8 30bc 0765 f93c 2d60 283d 1a80 8a3d
00000370: 2505 8dbd 3c6f debd 642d e03b a77a ca3d
00000380: a9a6 e8bd dbba 3cbb f434 96bc 6697 96bd
00000390: 4071 363b 0006 12bb 63d4 f83d 9262 a73d
000003a0: 34f4 1f3d f3e6 e1bc 4ca5 b5ba a3cb f1bd
000003b0: 3a51 7f3d b042 f0bd 1590 86bd 6edb 1bbd
000003c0: b289 0c3d 68fc ef3d 4b9e 87bd 3764 b7bd
000003d0: 0798 993c 4f54 263d 5841 cebc 9bc0 5f3c
000003e0: f83f 7bbd 464f c63d 7f14 d43d 9e2d 8d3d
000003f0: e05d 79bc 409d ea3d d6e3 f6bd b5c0 773c
-0.091355875 -0.040592924 0.020242529 0.12000838 -0.000581656 -0.038138844 0.070065804 0.099492125
-0.009307447 -0.10841082 0.07854277 0.103272006 0.03927965 -0.091384254 0.057162523 0.010379866
0.0788009 -0.088952176 0.12152717 0.10979777 -0.06618708 -0.12161555 0.051770616 0.005130773
0.0854876 0.10742377 -0.08767217 -0.014836118 -0.01724394 0.10725847 0.053737264 0.12182516
0.116311505 0.039405357 0.0037296878 -0.074339226 0.045592576 0.07577345 0.06851425 -0.037834726
-0.061732218 0.07878295 0.022196505 -0.08863093 -0.1114688 -0.10780193 0.0955435 0.030183462
-0.011049958 0.12423839 -0.013944901 0.096978664 0.013605733 -0.092411555 0.032590196 -0.109013475
0.036604375 0.0554144 -0.11787552 0.12070839 -0.02023904 0.10085462 -0.05177751 0.09888287
0.033751573 0.046101876 0.10202647 0.06491622 -0.06275304 0.054566897 -0.08507514 0.062316705
-0.04456858 0.009625599 0.025999306 0.08218143 -0.03839726 0.01729994 -0.06632991 0.107233316
-0.024061583 0.012110926 -0.058445722 -0.10057658 -0.0476775 -0.095333435 -0.05650644 -0.12135817
0.0326203 0.02189735 0.02656699 -0.08254899 -0.084429026 0.12002726 -0.11991906 0.08224285
-0.09219637 0.11629075 0.10958822 0.03292017 0.06499489 -0.021036282 -0.077715226 0.070361614
0.04531361 0.010337129 0.0014252405 -0.07007644 -0.0015077187 0.06813376 -0.096439295 -0.075521015
0.037383415 0.030214276 0.0072575603 0.11172948 0.071519315 -0.104920596 0.021462256 0.010427139
-0.03908758 -0.01595577 0.12413921 0.09081211 -0.10460727 0.0047608465 -0.03750284 0.09621983
0.07157399 0.005659636 -0.09815539 0.07512172 -0.035436507 0.054721676 0.116905816 -0.116601005
-0.09045612 0.10376045 0.06791357 -0.040528145 -0.05432642 0.028554892 -0.06228423 -0.08388232
0.03165017 0.11472101 0.12230743 -0.08960152 0.05553414 0.12175469 -0.056109004 0.02939774
-0.04085759 -0.07888366 0.0741632 0.106390014 0.002741385 0.047886096 0.063365966 0.054879505
0.06971075 -0.059685607 0.0975605 0.09333036 0.09420842 -0.028367192 0.11639051 0.08538512
0.124464184 0.06568982 -0.03366947 -0.039600387 0.006403398 0.071192056 -0.0895306 0.021084303
0.02885 0.08173543 -0.12089725 0.0548335 -0.059577357 0.081755474 0.074782714 0.09738017
0.028891444 -0.048906855 0.0055190194 0.022980325 -0.025679916 0.09822464 0.047501773 0.098728776
0.015090582 -0.106781386 0.06879466 0.024210189 0.006139772 -0.05157501 -0.04077911 0.04671193
-0.1196349 0.059475213 0.03657813 0.06585438 0.11990723 0.018579379 -0.05504863 0.11886613
-0.07657036 -0.08179227 0.007615664 0.063023895 0.10880114 -0.014382724 -0.08295197 -0.06283618
-0.010801523 0.030443681 0.041107345 0.06762715 -0.06885747 -0.1086106 0.0068413485 0.09886675
-0.11359913 -0.0028797898 -0.018335797 -0.07353096 0.0027838498 -0.0022281408 0.121498846 0.08173098
0.03905125 -0.027575945 -0.0013858466 -0.11806419 0.062333323 -0.1173147 -0.0657045 -0.03805106
0.034311004 0.117180645 -0.06621989 -0.08954661 0.01874925 0.040607747 -0.025177643 0.013656761
-0.061340302 0.09683089 0.10355472 0.068934664 -0.015220135 0.11455774 -0.12055175 0.0151216285

actor.actor.7.bias f4 [7]
00000000: 4821 333d 006f 1f3c 3541 fe3c 498e 453d
00000010: dec7 1e3d a761 aa3c a670 813c
0.04373291 0.009731054 0.031036953 0.048231397 0.038764827 0.020798517 0.015800785

actor.critic.0.weight f4 [64, 3]
00000000: a0ec 75bd ac13 b93e 5ac9 0f3f 4e6b 3bbe
00000010: daa0 92be 6c0e f63e 8e2d 913e 1ee6 22be
00000020: 84b8 633e 60f2 41be 1fea 0bbf b5e6 f3be
00000030: 0889 1a3e c826 dd3d 5024 b23d 3ed9 afbe
00000040: 3675 903e 7aeb 083f 515c b7be d8c1 a3be
00000050: 043f 073f c00a dc3e cc17 ef3e 006b 5e3b
00000060: 86ac 073f 62eb cb3e 10ec c03d d0fc f53d
00000070: 30c4 a23d 0eca d03e a030 873d 46b4 d03e
00000080: 6c4e 9bbe de33 023f 20b2 053d e08c ccbd
00000090: 106e 7e3d 682c f33e 6690 c03e 2550 a7be
000000a0: cb31 84be bc1d 19be 6887 99be bfc0 f3be
000000b0: 0202 c4be 0c6a 42be b0b0 283d 4239 3cbe
000000c0: 0027 0b3c a8eb 6cbe 3f6f 0cbf 1bb3 13bf
000000d0: f0b3 d23d 1043 083d 8079 f9be 1e0d e7be
000000e0: 2b8e 03bf bc10 43be 70d7 e03d 1cda 003f
000000f0: 3075 a43e 8c5d 12be 2079 00bd 5869 e03d
00000100: fc4b 12bf 90f2 8f3d 1b10 dabe f209 8e3e
00000110: 5465 e33e 8d63 dabe dc30 b43e e285 42be
00000120: 8045 33be 934e 13bf f658 75be 66da bc3e
00000130: ee2a 0e3f 2cee 60be 4866 7abe fee1 0ebe
00000140: e818 db3e d0c3 733e 746b 6c3e 4846 f13e
00000150: 287d 893d a888 b4be 3a7e 0c3f 0cd1 793e
00000160: c472 e73e b85f f83d f059 523d 58dd 8f3d
00000170: 6a76 4dbe f2be a83e a46f c7be 7099 e73e
00000180: 4461 843e 8c01 3e3e cb57 e2be 5c75 ab3e
00000190: 10ca 15bd 04f1 eb3e 4e4f bbbe 744f 663e
000001a0: 4f7f 0bbf b2b9 0dbf e050 c2bc b6a0 ac3e
000001b0: 0c60 a03e 0407 b9be ae01 cc3e 7497 a2bd
000001c0: 00f4 543b 08d6 653e d827 903d 2c7a e13e
000001d0: b241 85be 2e8c 943e a882 8ebe 0081 493d
000001e0: a843 e4be 407d 2cbd a01b c73d 7f7b 09bf
000001f0: 12bc aebe c057 9d3d fc7c 1dbe fa7e debe
00000200: 14c7 043f cee2 49be 772b 80be 3875 11be
00000210: 1096 ecbe 0199 b9be 1067 283e 90f8 a4bd
00000220: 40ed a53c b27e 4ebe b0f1 2d3e 1824 b13e
00000230: 7a8c 943e 40b5 373c a6e5 e0be 9879 ff3e
00000240: f0b0 0d3f 706e bd3d c035 263d 9825 c93d
00000250: aca6 e73e 3673 08bf 40f3 6f3d e458 de3e
00000260: 30ae cc3d d81d d03d 4a20 8a3e 76d5 893e
00000270: 36e0 31be c86f 9a3d 0066 e33e 729b c5be
00000280: b840 c2be 1ca4 7c3e 20ff 403e e07c 4f3e
00000290: 47cd 9bbe 50e8 4d3d 4000 77bd 565e 27be
000002a0: 3c42 69be b4be 433e f641 d6be 5af9 20be
000002b0: 9d63 d9be 5804 11be 54a5 bcbe 9ae3 61be
000002c0: 9ef1 c6be 512b aebe 1ee3 b1be 9113 d7be
000002d0: dd73 07bf 4ca1 c6bd 9c56 3d3e 40a4 b93d
000002e0: 6004 a43c 1089 debd 16f5 ffbe 2882 fbbe
000002f0: 60ee d23d 0469 cfbe 483f 0e3f 1816 b73e
-0.060040116 0.3614782 0.56166613 -0.18302652 -0.28638345 0.48057878 0.28355068 -0.15908095
0.22238356 -0.18940115 -0.54654115 -0.47636953 0.15091336 0.107984126 0.08698332 -0.3434543
0.28214425 0.5348431 -0.3581262 -0.3198383 0.5283053 0.42976952 0.46697843 0.0033938289
0.52997625 0.3982802 0.09420025 0.12011111 0.07947576 0.40779155 0.06601071 0.40762538
-0.3033327 0.50860393 0.032640576 -0.09987807 0.062116683 0.47494817 0.37610167 -0.32678333
-0.2581924 -0.14952749 -0.2998612 -0.4760799 -0.38282782 -0.18985766 0.041184127 -0.18381217
0.008493185 -0.2313677 -0.5485725 -0.5769517 0.102882266 0.03326708 -0.4872551 -0.45127195
-0.51388806 -0.19049352 0.109785914 0.5033281 0.32120657 -0.14293498 -0.031365514 0.10957593
-0.5714719 0.07028687 -0.42590412 0.27741963 0.44413245 -0.42654076 0.35193527 -0.18996385
-0.17506981 -0.5754177 -0.23959717 0.36885375 0.55534256 -0.21965855 -0.2445308 -0.13953397
0.4279244 0.23805165 0.23087865 0.47123933 0.06713325 -0.3526051 0.54880106 0.24396151
0.45204747 0.12127632 0.051355302 0.0702464 -0.20064703 0.3295818 -0.38952363 0.4523425
0.25855458 0.18555278 -0.44207606 0.33487976 -0.036569655 0.46082318 -0.36583942 0.22491246
-0.5449113 -0.55361474 -0.023720205 0.33716363 0.31323278 -0.36138165 0.39845031 -0.07939044
0.0032494068 0.22444928 0.070388496 0.44038522 -0.26026684 0.290132 -0.27834058 0.04919529
-0.44582868 -0.042111635 0.09722066 -0.53704065 -0.3412786 0.076827526 -0.15379709 -0.4345625
0.5186627 -0.19715425 -0.2503316 -0.14204872 -0.4620824 -0.36249545 0.16445565 -0.08055222
0.020254731 -0.20165518 0.16986728 0.3459785 0.29013425 0.011212647 -0.43925208 0.49897456
0.5534811 0.0924958 0.040578604 0.098216236 0.45244348 -0.533008 0.05858159 0.43427193
0.09994161 0.10161942 0.2697776 0.2692067 -0.17370686 0.07540852 0.44413757 -0.38595158
-0.3794 0.24671978 0.18847322 0.2026248 -0.30430052 0.05027038 -0.060302973 -0.1634458
-0.22779173 0.19115716 -0.418472 -0.1572012 -0.4245881 -0.14161813 -0.36844885 -0.2205948
-0.38856214 -0.34017423 -0.3474359 -0.42007115 -0.5291117 -0.09698734 0.1849007 0.09064531
0.020021617 -0.10865986 -0.49991673 -0.4912274 0.10299373 -0.40509808 0.5556531 0.35759044

actor.critic.0.bias f4 [64]
00000000: 6081 d2bd 20aa 833e f2cd dcbe 020b b2be
00000010: 9004 113e 187c 923d 0c85 4bbe 300b 40bd
00000020: d923 04bf b8f3 8dbd 405e 323c e679 c4be
00000030: 9cd2 ac3e f8cb 87bd 50d1 eb3e 38a8 79be
00000040: 3e96 b8be b2e5 7bbe a420 823e 2876 ab3e
00000050: 241b 723e 0032 5ebb 90ca 503d 6480 043e
00000060: fca4 703e 5cc5 d83e 6e70 0f3f 30e4 233e
00000070: c09b 26be e6c0 0dbe 9498 74be 2015 823c
00000080: 1264 b2be b009 df3e ec16 8abe 442e bbbe
00000090: 805d 523d 2484 e23e a8e1 ff3e e285 b4be
000000a0: 044f e93e 701c 88bd b20d 023f 305f 2cbd
000000b0: 6f61 e0be f609 9a3e 0256 fbbe 70aa 01bf
000000c0: e884 25be 007c 25bc 00c8 11ba 80ef edbd
000000d0: 8248 973e c8ee f33d 8484 f8be 2e9c d4be
000000e0: be69 f8be e4e3 5f3e a0f0 ac3e f442 60be
000000f0: 3c3f 013f 02fe 043f 2053 a1bc dc2a 0bbe
-0.102785826 0.25715733 -0.43125874 -0.34774023 0.14161897 0.07152575 -0.19874972 -0.04688567
-0.516172 -0.06931251 0.010886729 -0.3837425 0.33754432 -0.06630701 0.4605813 -0.24380577
-0.36052126 -0.2459934 0.25415528 0.33488584 0.23643166 -0.0033904314 0.05097443 0.12939602
0.23500437 0.42338073 0.5603093 0.16005015 -0.16270351 -0.13843116 -0.23886329 0.015879214
-0.34841973 0.43562078 -0.26970613 -0.36558735 0.0513587 0.4424144 0.4997685 -0.35258394
0.45568097 -0.06646049 0.5080215 -0.042082965 -0.43824336 0.30085725 -0.49089056 -0.5065069
-0.16163981 -0.010100365 -0.00055611134 -0.116179466 0.29547507 0.11910778 -0.485386 -0.41525406
-0.48518175 0.21864277 0.33777332 -0.2190054 0.50487113 0.51950085 -0.019692957 -0.13590568

actor.critic.1.weight f4 [64]
00000000: 0000 803f 0000 803f 0000 803f 0000 803f
00000010: 0000 803f 0000 803f 0000 803f 0000 803f
00000020: 0000 803f 0000 803f 0000 803f 0000 803f
00000030: 0000 803f 0000 803f 0000 803f 0000 803f
00000040: 0000 803f 0000 803f 0000 803f 0000 803f
00000050: 0000 803f 0000 803f 0000 803f 0000 803f
00000060: 0000 803f 0000 803f 0000 803f 0000 803f
00000070: 0000 803f 0000 803f 0000 803f 0000 803f
00000080: 0000 803f 0000 803f 0000 803f 0000 803f
00000090: 0000 803f 0000 803f 0000 803f 0000 803f
000000a0: 0000 803f 0000 803f 0000 803f 0000 803f
000000b0: 0000 803f 0000 803f 0000 803f 0000 803f
000000c0: 0000 803f 0000 803f 0000 803f 0000 803f
000000d0: 0000 803f 0000 803f 0000 803f 0000 803f
000000e0: 0000 803f 0000 803f 0000 803f 0000 803f
000000f0: 0000 803f 0000 803f 0000 803f 0000 803f
1.0 1.0 1.0 1.0 1.0 1.0 1.0 1.0
1.0 1.0 1.0 1.0 1.0 1.0 1.0 1.0
1.0 1.0 1.0 1.0 1.0 1.0 1.0 1.0
1.0 1.0 1.0 1.0 1.0 1.0 1.0 1.0
1.0 1.0 1.0 1.0 1.0 1.0 1.0 1.0
1.0 1.0 1.0 1.0 1.0 1.0 1.0 1.0
1.0 1.0 1.0 1.0 1.0 1.0 1.0 1.0
1.0 1.0 1.0 1.0 1.0 1.0 1.0 1.0

actor.critic.1.bias f4 [64]
00000000: 0000 0000 0000 0000 0000 0000 0000 0000
00000010: 0000 0000 0000 0000 0000 0000 0000 0000
00000020: 0000 0000 0000 0000 0000 0000 0000 0000
00000030: 0000 0000 0000 0000 0000 0000 0000 0000
00000040: 0000 0000 0000 0000 0000 0000 0000 0000
00000050: 0000 0000 0000 0000 0000 0000 0000 0000
00000060: 0000 0000 0000 0000 0000 0000 0000 0000
00000070: 0000 0000 0000 0000 0000 0000 0000 0000
00000080: 0000 0000 0000 0000 0000 0000 0000 0000
00000090: 0000 0000 0000 0000 0000 0000 0000 0000
000000a0: 0000 0000 0000 0000 0000 0000 0000 0000
000000b0: 0000 0000 0000 0000 0000 0000 0000 0000
000000c0: 0000 0000 0000 0000 0000 0000 0000 0000
000000d0: 0000 0000 0000 0000 0000 0000 0000 0000
000000e0: 0000 0000 0000 0000 0000 0000 0000 0000
000000f0: 0000 0000 0000 0000 0000 0000 0000 0000
0.0 0.0 0.0 0.0 0.0 0.0 0.0 0.0
0.0 0.0 0.0 0.0 0.0 0.0 0.0 0.0
0.0 0.0 0.0 0.0 0.0 0.0 0.0 0.0
0.0 0.0 0.0 0.0 0.0 0.0 0.0 0.0
0.0 0.0 0.0 0.0 0.0 0.0 0.0 0.0
0.0 0.0 0.0 0.0 0.0 0.0 0.0 0.0
0.0 0.0 0.0 0.0 0.0 0.0 0.0 0.0
0.0 0.0 0.0 0.0 0.0 0.0 0.0 0.0

actor.critic.3.weight f4 [64, 64]
00000000: eceb bd3d 78e8 263d 6223 a43d d085 5e3d
00000010: 80ee acbd 0082 ac3c ae32 e33d 5c07 1e3d
00000020: 0ad6 e73d d059 ffbc 40bc ebbd b280 8abd
00000030: 9cf1 c1bd d297 c7bd 8089 c33c 6846 f6bc
00000040: 127c d7bd ac6d 9b3d 7064 6e3c 967d b6bd
00000050: e058 f0bc cc8c d1bd f8bb ba3d 807b 383d
00000060: fc2b 093d 1609 c63d 609c c1bd 1e53 bd3d
00000070: a05d 0ebd d823 ed3d 6cc0 85bd f8b1 903d
00000080: 80e8 fb3d 1067 a13d 2070 98bc d078 973c
00000090: d415 9cbd f247 f1bd a822 e0bd 0c16 8bbd
000000a0: 025c f3bd 9282 f7bd d60c 94bd beaa fb3d
000000b0: d47e c33d 82b1 e53d 881a 0e3d 4497 5f3d
000000c0: f400 8d3d fa01 b8bd 6059 513c c042 c0bd
000000d0: c88f be3d 208b ec3b 88ff 56bd 1808 b83d
000000e0: 3070 4d3d 4270 d7bd 6235 8fbd 084b fcbc
000000f0: 9ae2 c7bd 201a 99bd 4099 71bb d483 b93d
00000100: 7ab5 893d 6c4e 8fbd 70e7 94bd 0818 f43c
00000110: 7493 ef3d f4a5 fabd ae29 8fbd 0c8e dabd
00000120: c4d8 92bd 107c 89bc 2087 833b 3263 a23d
00000130: 70f4 efbc c0d1 bb3c 96b3 f33d c0cc 31bd
00000140: 502e f23d 5829 e03d ace3 5c3d 7689 a03d
00000150: bce1 ecbd 0016 c5ba 56ca cbbd f06d 5dbc
00000160: f062 9bbd 24e3 4ebd 88ca 14bd 3432 44bd
00000170: 803e 903b e2fb c53d 4c34 6dbd c8b0 593d
00000180: 808c 703c 0c4f 253d 10bf e53d d4d5 f1bd
00000190: 7050 033d 16ae e2bd f290 8a3d d4a1 86bd
000001a0: 9452 833d b880 e2bc 149b 41bd 9894 a7bd
000001b0: 0ac6 cb3d 5622 d2bd c6ca acbd 98f0 843d
000001c0: be3f d73d c238 cf3d b8b5 67bd 80b2 06bb
000001d0: 202c 2fbc e021 d83d 5074 3d3d 943c 9fbd
000001e0: 4cb6 93bd 820b 9a3d b086 d3bd 8cbe e63d
000001f0: 30ae 39bc ee89 dcbd d8f9 fabc ba74 c13d
00000200: 6c03 6d3d be51 83bd 08c6 2a3d 28dc ac3d
00000210: 4cf0 dd3d b075 0a3c b210 dfbd 22d5 84bd
00000220: 400b efbb 0071 163a 00f1 3a3a 6627 f83d
00000230: 0625 903d 806e 15bd 66dd d53d b8d2 f4bd
00000240: 94f7 1c3d d254 93bd e002 86bb 041e 6f3d
00000250: 5c5b 3bbd 5a29 cabd d8a4 64bd 9c8b 9cbd
00000260: 58ea 063d 3cd4 eb3d 803e beba 8814 e9bc
00000270: ce3f d63d cc79 583d e0d6 7e3d 08d8 12bd
00000280: e850 84bc 80ee c5bd b04b 51bc d0df c5bc
00000290: 50a1 bc3d a63a cb3d 54c2 483d 9440 e23d
000002a0: faa3 aa3d a899 8f3c 60c6 a13c acfd 00bd
000002b0: 5c67 03bd a866 f7bd 4a7c eabd 3672 f13d
000002c0: 7c62 d1bd ee91 bfbd f4f9 fe3d 44a2 9a3d
000002d0: c23d b93d 88f4 fe3c fc63 7ebd c67f dcbd
000002e0: 1453 1fbd 3c95 8fbd 5aa3 b1bd 3ae9 a03d
000002f0: 405e 46bb 38b0 c6bd 0080 3fbb c058 d33c
00000300: 8cd8 463d 80ed 3f3c 2448 b9bd 7aaf ed3d
00000310: aa4e da3d 90e8 c9bd 409f 8ebc 7068 083c
00000320: 6050 f7bb c0e9 edbb 72af e13d 008f 133a
00000330: 7615 c73d 6cd1 d93d c4f9 5a3d 347e f6bd
00000340: a4b8 b93d 4844 02bd 8c1b a9bd 8468 103d
00000350: 8018 923c b863 e93d c4cb 283d 70c9 df3d
00000360: be8e cb3d c8b8 8f3d 40e0 123c a876 87bd
00000370: fccc 49bd 1418 4a3d 2821 7fbd 107d 4dbc
00000380: 5e37 9ebd e0a4 f5bc dc9a 76bd 3cb1 52bd
00000390: aea9 a6bd 308a 37bd c8dd 443d fed3 a3bd
000003a0: 72fc e0bd ce3e b93d 0076 8abc b2b2 913d
000003b0: 924e fd3d 0861 6dbd 9855 cb3d 48d5 d5bd
000003c0: 683a 5f3d 24f1 45bd 467f e9bd b409 dfbd
000003d0: e28f ccbd 1cf9 45bd 360b e93d d828 b03d
000003e0: 8037 7fbb f85e 9c3d cefb f03d fcb9 283d
000003f0: f200 eabd 6602 f23d f022 5e3d c44e 953d
0.09273514 0.040749043 0.08014561 0.054326832 -0.08443928 0.021058083 0.11093651 0.038581237
0.113201216 -0.031170756 -0.11510515 -0.06762828 -0.094699115 -0.09745754 0.023869276 -0.03006287
-0.105217114 0.075892776 0.014550313 -0.08910672 -0.029339254 -0.10231933 0.091178834 0.045039654
0.033489212 0.09669702 -0.09453654 0.09244369 -0.034757257 0.11579102 -0.06530842 0.07065195
0.12300205 0.07880986 -0.018608153 0.018490225 -0.07621351 -0.117813006 -0.1094411 -0.067913145
-0.118827835 -0.12085451 -0.07229011 0.12288426 0.09545675 0.112154976 0.03469327 0.054587618
0.068849474 -0.08984752 0.012777656 -0.093877316 0.09304768 0.0072187334 -0.052489787 0.08985919
0.05015582 -0.10519458 -0.06992604 -0.030797496 -0.09760018 -0.07475686 -0.0036865026 0.09058347
0.06724067 -0.0699738 -0.07270706 0.029796615 0.11698046 -0.12238684 -0.06990372 -0.106716245
-0.07170251 -0.01678279 0.004013911 0.07929076 -0.029291362 0.022927165 0.11899488 -0.043408155
0.1182524 0.10945386 0.053928062 0.078387186 -0.11566493 -0.0015036464 -0.09950702 -0.013514981
-0.0758723 -0.050509587 -0.03632596 -0.04789944 0.004401982 0.096671835 -0.057911202 0.053147107
0.014681935 0.040358588 0.11218083 -0.118083626 0.032059133 -0.110683605 0.067659274 -0.06573835
0.06412235 -0.027649269 -0.047267035 -0.08182639 0.09949882 -0.10260455 -0.084371135 0.06491202
0.10510205 0.101182476 -0.056569785 -0.0020553172 -0.010691673 0.10553336 0.046253502 -0.07775226
-0.07212505 0.07521726 -0.10328424 0.11266813 -0.011333033 -0.107684955 -0.030636713 0.09446092
0.05786459 -0.064120755 0.041692764 0.08440429 0.108368486 0.00845091 -0.10891856 -0.06485964
-0.0072950423 0.0005738884 0.0007131249 0.1211689 0.07038312 -0.036482334 0.10442619 -0.11954254
0.038322046 -0.071939126 -0.004089698 0.058378235 -0.045741424 -0.098711684 -0.05582127 -0.07643816
0.03293833 0.1151509 -0.0014514476 -0.028452173 0.104613885 0.05285053 0.06221664 -0.035850555
-0.01615186 -0.09664631 -0.012774393 -0.024154574 0.092104554 0.09923296 0.04901345 0.110474735
0.08332057 0.017529324 0.019747913 -0.03149192 -0.032080993 -0.12080127 -0.114494875 0.11789362
-0.102238625 -0.09354006 0.124500185 0.07550481 0.090449825 0.031122461 -0.06210707 -0.10766558
-0.03889759 -0.07010886 -0.08673735 0.078569844 -0.003026858 -0.0970158 -0.002922058 0.025799155
0.04854636 0.011714339 -0.09046963 0.11605735 0.10659535 -0.09858811 -0.01740992 0.008325681
-0.0075474232 -0.007260531 0.11019792 0.00056289136 0.0972089 0.10635647 0.05346085 -0.1203579
0.090684205 -0.0318034 -0.08257207 0.035255924 0.017833948 0.11395973 0.04120995 0.10927093
0.09939335 0.07017666 0.008964598 -0.06614429 -0.049267754 0.04933937 -0.06228748 -0.012542024
-0.07725404 -0.029985845 -0.06020628 -0.051438555 -0.081378326 -0.04480952 0.04806307 -0.07999419
-0.1098565 0.09045182 -0.01690197 0.071141616 0.12368502 -0.057953864 0.09928435 -0.10441071
0.05449906 -0.048325673 -0.114012286 -0.108905226 -0.09988381 -0.048333272 0.113790914 0.0860154
-0.0038942993 0.07635301 0.11766778 0.041192994 -0.114259616 0.11816864 0.054232538 0.07290414

actor.critic.3.bias f4 [64]
00000000: 0a64 87bd 006b a6bc ecab c73d 84c1 a73d
00000010: c03f cebd 5ac7 8f3d 4c1e 4dbd acf2 ec3d
00000020: 8a53 a2bd f852 953c 30f4 ef3c 5a33 e9bd
00000030: 2add edbd 1c76 7dbd dcdc c9bd faac 91bd
00000040: 50c9 dcbc 404f e43d eca5 87bd f25a cc3d
00000050: 28e1 b6bc be9c cdbd 3613 9bbd 78c3 423d
00000060: 2012 c93c 2c8c dcbd 80e3 c73d ecb2 0f3d
00000070: ae4c bf3d 7881 6abd ae35 ddbd c049 27bd
00000080: 48ba dbbc 3cd5 33bd 58ac 553d 88a5 ebbd
00000090: 606f d2bb 823a 94bd 88e5 d9bc 3cac b63d
000000a0: 6c3a 66bd f81d d2bc b028 a73d c095 67bb
000000b0: 906d c2bd d01e 06bc 10c6 5cbd 40be f23b
000000c0: d8d6 b0bc 5872 f8bd be43 bfbd f692 82bd
000000d0: e2d0 88bd dc99 7abd 9095 713d f469 903d
000000e0: a46f 2c3d c015 4ebd 40c9 e7bd ac35 593d
000000f0: b4b2 7e3d 007d bd3a bcf5 0abd e070 82bc
-0.06610878 -0.020314693 0.09749588 0.08191207 -0.10070753 0.07020445 -0.05007772 0.115697235
-0.0792609 0.01822804 0.029291242 -0.11386748 -0.11614449 -0.061880216 -0.09856579 -0.07113071
-0.026951462 0.11147928 -0.06623444 0.09978284 -0.02232416 -0.10039662 -0.075720236 0.047549695
0.024544775 -0.10768923 0.09760189 0.035082743 0.09340797 -0.057252377 -0.10801254 -0.040841818
-0.026822224 -0.043904528 0.052166313 -0.11506182 -0.0064219683 -0.07237722 -0.026598707 0.0891957
-0.05620806 -0.025649056 0.081620574 -0.003533706 -0.09493554 -0.008186057 -0.053899825 0.0074079335
-0.02158682 -0.12131184 -0.09339093 -0.06375687 -0.06680466 -0.061181888 0.058980525 0.07051459
0.042098656 -0.05031371 -0.11317682 0.0530297 0.062182143 0.0014456809 -0.033925757 -0.015922964
